…
===============================================================================================================================================================================================================================================================================================================================================================================================================================================================
VPRModel(
  (backbone): ViT(
    (to_patch_embedding): Sequential(
      (0): Rearrange('b c (h p1) (w p2) -> b (h w) (p1 p2 c)', p1=14, p2=14)
      (1): LayerNorm((588,), eps=1e-05, elementwise_affine=True)
      (2): Linear(in_features=588, out_features=384, bias=True)
      (3): LayerNorm((384,), eps=1e-05, elementwise_affine=True)
    )
    (dropout): Dropout(p=0.1, inplace=False)
    (transformer): Transformer(
      (norm): LayerNorm((384,), eps=1e-05, elementwise_affine=True)
      (layers): ModuleList(
        (0-11): 12 x ModuleList(
          (0): Attention(
            (norm): LayerNorm((384,), eps=1e-05, elementwise_affine=True)
            (attend): Softmax(dim=-1)
            (dropout): Dropout(p=0.1, inplace=False)
            (to_qkv): LRBitLinear
            (to_out): Sequential(
              (0): LRBitLinear
              (1): Dropout(p=0.1, inplace=False)
            )
          )
          (1): FeedForward(
            (net): Sequential(
              (0): LayerNorm((384,), eps=1e-05, elementwise_affine=True)
              (1): LRBitLinear
              (2): GELU(approximate='none')
              (3): Dropout(p=0.1, inplace=False)
              (4): LRBitLinear
              (5): Dropout(p=0.1, inplace=False)
            )
          )
        )
      )
    )
  )
  (aggreagtion): SALAD(
    (token_features): Sequential(
      (0): Linear(in_features=384, out_features=512, bias=True)
      (1): ReLU()
      (2): Linear(in_features=512, out_features=256, bias=True)
    )
    (cluster_features): Sequential(
      (0): Conv2d(384, 512, kernel_size=(1, 1), stride=(1, 1))
      (1): Dropout(p=0.3, inplace=False)
      (2): ReLU()
      (3): Conv2d(512, 128, kernel_size=(1, 1), stride=(1, 1))
    )
    (score): Sequential(
      (0): Conv2d(384, 512, kernel_size=(1, 1), stride=(1, 1))
      (1): Dropout(p=0.3, inplace=False)
      (2): ReLU()
      (3): Conv2d(512, 64, kernel_size=(1, 1), stride=(1, 1))
    )
  )
)
Scanning directory: /scratch/oeg1n18/datasets/vpr/sf_xl/raw/train/panoramas
Found subdirectories. Scanning each:
  37.71: 228643 images
  37.76: 412361 images
  37.72: 235935 images
  37.78: 438066 images
  37.74: 311148 images
  37.70: 163665 images
  37.80: 188416 images
  37.77: 458764 images
  37.73: 347857 images
  37.79: 309385 images
  37.75: 335999 images
…
